assets/model.tflite (tflite, 670048 bytes, 7 tensors)

sequential_3/lstm_3/Read_2/ReadVariableOp f4 [400]
00000000: 82be 1e3d 65fb 333e 3cbf 813d 2d73 a13e
00000010: f52f e93c d651 da3d 0394 623e 4e01 803d
00000020: c166 303e 41c1 183d 76c3 873d 3b79 263e
00000030: 4144 e33c f84c 083d 25f3 cf3d f983 483d
00000040: 7ad4 073d dac8 f73c 42e8 003d 9512 043d
00000050: 8504 3a3d dcf0 243d 6eca 033d 814f 0b3d
00000060: 6bd4 113d 3eb8 593d b497 0b3d b67b e13c
00000070: eee3 103d 5d50 e93c cf08 953d b121 173d
00000080: 3296 183d bb53 553e 15b0 0c3d f916 963d
00000090: c437 e53d 9ae6 163d 25d5 943e 1d5d 0d3d
000000a0: 7a1e 413e 02f2 843c edcb 233e e39c 543d
000000b0: a9fb 373d a45b 573e 5b59 0b3d e7d9 193e
000000c0: 6f61 e03d 1ac2 ff3c 7b50 d83c d3b7 d63d
000000d0: bbfa 203e b17f 0f3d 1ca4 e03d eff3 1c3d
000000e0: a088 133e eda2 013d 33b0 e93c 1e51 0d3e
000000f0: 0a4a 193d 5daf 273d 2332 143d f56f 823e
00000100: d71e 463e e87f 8b3d aa6b 023e 7674 e13d
00000110: 006b fd3c 4806 2e3e d434 ea3c 5335 263d
00000120: bb02 6d3e af9d 173e 8475 ec3d 256f 973d
00000130: 5714 073d 7c3c 3a3e d4c5 1b3d 34ed f63c
00000140: e8e2 2a3d 61ed 723e f64f a53d 85a5 603d
00000150: 6fa1 d83c 8437 d13e 3fb3 e13c 5b05 2f3d
00000160: 55b2 123d 8f9e 313d 4214 723e 0c97 2e3d
00000170: 4f95 0f3d aaca 093d 71ea 763c 73c2 283d
00000180: 54d9 643e b662 c33e 5e7c 013d e7c4 003d
00000190: 020b 853f 2d19 883f bdb2 823f 1402 633f
000001a0: a28d 833f 019f 7f3f 6abc 863f 8b2b 853f
000001b0: 06cc 813f 1ed1 853f 76c6 823f 891c 8a3f
000001c0: 3087 843f be5a 853f dedf 853f 6d1e 823f
000001d0: eceb 843f cfaf 843f 6437 843f d3c7 843f
000001e0: 8010 853f c45c 8b3f b7f3 843f 9b44 843f
000001f0: 98c7 843f 590e 853f b5ad 863f 5279 833f
00000200: d28d 843f 3126 843f 040d 863f 4e68 863f
00000210: 9d05 853f b751 853f 28ed 853f c8f5 7f3f
00000220: 71d3 853f b573 843f 8d2c 853f 3805 853f
00000230: fee6 7b3f a144 863f 1f7a 913f afbe 833f
00000240: 2b8e 843f a411 8a3f fa4a 843f 0233 693f
00000250: e602 873f 3e2e 843f fde5 833f 9f6c 813f
00000260: 28e3 7e3f 048f 843f a1cb 873f 50a2 853f
00000270: e6bf 813f cde8 843f 61cf 843f a99d 733f
00000280: 7f19 853f c182 893f 5154 853f c9a2 873f
00000290: 5aa7 833f 92fd 863f 843a 873f 4cb3 853f
000002a0: a698 843f 859a 803f 5b52 843f 7b52 863f
000002b0: d2d8 853f 9e3d 7b3f f5d7 833f e65f 853f
000002c0: f340 843f 6425 813f 435d 853f ffa9 843f
000002d0: 9d77 843f e0c8 8f3f 04ea 823f 518b 893f
000002e0: 8284 843f 9677 7f3f 9615 853f aeb9 843f
000002f0: b3dd 843f 0318 833f 0078 8c3f 5db8 863f
00000300: 4de7 843f fb44 853f 1886 843f 3db1 843f
00000310: 87db 853f cfcb 863f a95d 843f 0d30 853f
00000320: 8a71 06bd f80f 1dbc d01a d73c 206a 053d
00000330: 6f96 03bd a204 16bc 1327 4f3b 02eb dbbc
00000340: 6518 15bd d702 063d 52f4 d13c 7c6d a3bc
00000350: d25c ff3c 6132 fc3c 4358 d7bc 569b ed3c
00000360: 473a 043d 83da 043d eace 01bd 0149 013d
00000370: 2da4 dfbc 1c50 813b 7762 fdbc dd57 fabc
00000380: 760b 04bd 452c d0bc 00d8 0c3d 24da 00bd
00000390: 8f50 02bd 6bc3 ddbc c688 a8bc 083c e1bc
000003a0: b125 023d 574a e03c 6805 f83c 1d10 dd3c
000003b0: 03e3 90bc 9656 043d 09f4 a2bc 805f 013d
000003c0: d611 cd3d 597e 993c 2c13 b13c e7aa e2bc
000003d0: e658 e83c 9b2b d53c 1cb7 00bd 81f3 873c
000003e0: 825f 0fbc dd8e 083d 0522 003d 4958 9cbd
000003f0: 5127 e2bc 4811 03bd eb85 973c 1452 f1bc
0.0387559 0.17576368 0.06335303 0.31533185 0.02846525 0.1066014 0.22126774 0.06250249
0.17226698 0.037293676 0.06629078 0.16257183 0.027742507 0.033276528 0.10153798 0.048953984
0.033161618 0.03024714 0.0314715 0.032244284 0.045414466 0.040268764 0.032175474 0.034011368
0.03560297 0.053154223 0.034080222 0.02752481 0.03537362 0.028480703 0.07277071 0.036897365
0.037252612 0.20832722 0.034347612 0.073286004 0.11192277 0.036841013 0.29068866 0.034512628
0.18859282 0.01622868 0.1599576 0.05190743 0.044917736 0.21031052 0.034020763 0.1502453
0.10956084 0.031220485 0.026405564 0.104842804 0.15720646 0.035033885 0.109688014 0.03831857
0.14407587 0.03164952 0.028526401 0.13800475 0.037424125 0.040938724 0.036180627 0.2547604
0.19347702 0.068115056 0.12736383 0.11008541 0.03093481 0.16994584 0.028589644 0.040578198
0.23145573 0.14806245 0.11545852 0.07394246 0.032978382 0.18187135 0.03803046 0.030142404
0.0417203 0.23723365 0.08071892 0.05484535 0.026444165 0.40862668 0.027551292 0.042729717
0.035814602 0.043364104 0.2364054 0.04262452 0.0350545 0.03364054 0.015070544 0.041201066
0.22348529 0.38161248 0.031612746 0.03143778 1.0393984 1.0632683 1.0210797 0.88675046
1.0277598 0.99851996 1.052625 1.0403913 1.0140388 1.0454443 1.0216815 1.0789958
1.0353756 1.0418317 1.0458944 1.0165535 1.0384498 1.0366153 1.0329404 1.0373482
1.039566 1.0887685 1.0386876 1.0333437 1.0373411 1.0395004 1.0521761 1.0271399
1.035578 1.0324155 1.0472722 1.0500581 1.0392338 1.0415562 1.0462999 0.9998441
1.0455152 1.0347811 1.0404221 1.0392218 0.9839934 1.0489694 1.1365393 1.0292567
1.0355886 1.0786633 1.0335381 0.91093457 1.054776 1.0326612 1.0304562 1.0111274
0.9956536 1.0356145 1.0609018 1.0440159 1.0136688 1.0383545 1.0375787 0.95162445
1.0398406 1.0743028 1.0416356 1.0596553 1.0285447 1.0546134 1.0564733 1.0445342
1.0359085 1.0047156 1.0337633 1.0493921 1.0456793 0.98140895 1.030028 1.0419891
1.0332321 1.0089536 1.0419086 1.0364379 1.0349003 1.1233177 1.0227666 1.0745641
1.0352938 0.9979185 1.0397213 1.0369165 1.0380157 1.0241703 1.0974121 1.0525013
1.0383087 1.0411676 1.0353422 1.0366589 1.045762 1.0530947 1.0341083 1.0405289
-0.032823123 -0.009586327 0.026257902 0.03257191 -0.032125887 -0.009156378 0.0031608983 -0.026845459
-0.036400218 0.032717552 0.025629196 -0.019949667 0.03117219 0.030785741 -0.026287204 0.029004734
0.03228214 0.03243495 -0.03169147 0.031563763 -0.027299965 0.0039463174 -0.03093074 -0.030559475
-0.032237493 -0.025411734 0.03438568 -0.031458035 -0.031815108 -0.027070722 -0.020573031 -0.027494445
0.031774227 0.027379198 0.030276015 0.026985222 -0.017686373 0.032309137 -0.019891756 0.031585217
0.100131676 0.018737005 0.021615587 -0.027669383 0.028362703 0.02602177 -0.031424627 0.016595604
-0.008750798 0.03333937 0.031282444 -0.076340266 -0.027606638 -0.031998903 0.018496474 -0.029458083

sequential_3/embedding_3/embedding_lookup f4 [419, 100]
00000000: 10be 11bc b7fb 5ebe 7fbe 393e e5ad 15be
00000010: a38b bd3d 8d97 14be 0885 abbd 7d65 48be
00000020: 7b6e d3bd 6fe6 2abe 7183 2abe 7d51 313e
00000030: 2031 24be 9517 4fbe 8feb 19be ccf7 a4bc
00000040: ce63 d93d f03f 483e 54d8 7a3e 1f7c 893e
00000050: 4f9d 1dbe 146e 83bd 9a6c 463e fd2a 0f3e
00000060: be62 3bbe bb31 313e 02a1 2a3e f539 1dbe
00000070: 9e5f ef3d 8adc 013e d972 433e e79a 713d
00000080: f75d 46be 4bc1 0dbe f51c eabd 9d42 cdbb
00000090: d9bf 533e cf34 89be 1fcd 20bd 3978 0ebe
000000a0: 9b05 23be 3bec 1cbe 570a 01be 017f 2dbe
000000b0: 3afe 1b3d 9c06 ccbd a42d d1bc e10e 88be
000000c0: 3c9c f2bd 20a7 d9bd bf81 603e cb4e 313e
000000d0: 41a8 f93d 28ef 1c3e ceea 60be 58f6 1abe
000000e0: ca6b 3abe ad65 373e d8b2 9cbe a52d 2c3e
000000f0: 55e1 393e 842c 103e 8553 9bbd d1e4 4e3e
00000100: ca69 953e a796 c73d 4db6 45bd c537 e93d
00000110: 88d0 55be ceeb f0bc cade 1bbe 4258 7dbd
00000120: 899b 2bbe 6244 40be 89e7 7abc ecde 933d
00000130: de66 54be 11ba 0bbe 39cd 63be 0ba3 2e3e
00000140: 8899 933d 7ede 153d 8786 5e3d 5201 f0bd
00000150: 4d5d a33e 9ff4 043d 490c f0bd 6403 d13d
00000160: 7ada ddbb 4cd8 48be f531 073e c853 1b3e
00000170: 4d94 03be 7375 84be 97df 4abe 46a6 193e
00000180: 46ba 01be 4f7f 00be fd2b 5cbe eb5a 903d
00000190: 14cd 273e f5dc 373e 298c 59be a331 383e
000001a0: 507d 30be eb2a 07bd d542 22be 9c35 0c3e
000001b0: 99b4 293e 52e7 313e 4850 4dbe 0d19 b1bc
000001c0: 8457 32be 3f9c 37be 6fbc 54be 40c1 1bbe
000001d0: 229f 1abe 3264 16be 98bb 583e ebca 443e
000001e0: 9c8a 3abe f1e5 273e 27e1 803e 3b04 46be
000001f0: 934c 473e 4f36 3b3e 014c 443e 4f4f 553e
00000200: 39f5 883e 64e1 453e 8641 793e b5a0 433e
00000210: 6901 5f3e 5417 0d3e d2c1 293e f368 40be
00000220: ac98 1abe e5fa 4f3e 4326 10be 345c 27be
00000230: a4d1 4ebe 593d 063e 25c5 323e 9cd5 48be
00000240: 0196 1ebe 7e8d 1e3e 121b 1dbe c587 353e
00000250: dede 21be 6634 3ebe 3633 53be 543b 49be
00000260: 71ee 37be 6224 2e3e 6c58 24be 9038 1abe
00000270: 9033 4bbe d1da 483e 1195 323e b833 4fbe
00000280: d042 453e 6629 4bbe f5df 1cbe 4314 54be
00000290: 9ad4 683e acfd 2e3e 5c6d 47be 37db 3c3e
000002a0: 8376 5abe edd3 22be 1dfe 223e 13e3 20be
000002b0: 8412 383e 9c70 5a3e 6622 1cbe 4c3f 263e
000002c0: 72be 4dbe 527e 333e 824c 47be 73fa 2b3e
000002d0: 70f1 303e 6fe4 203e 0ad8 17be 9434 4bbe
000002e0: f8e5 3b3e 3c75 253e 9036 503e 8af4 4bbe
000002f0: 21a5 393e efd1 633e bee3 41be 1678 3b3e
00000300: 78cc 0f3e d251 333e 4f4c 38be f016 96bd
00000310: 6e6e 4cbe 38b0 183e 7cc6 373e bea6 123e
00000320: 38fc 883d c0bd 333e 4da1 39be 6f46 903d
00000330: 8182 2cbd cc90 90be 6cb6 58be ea29 2cbe
00000340: 6370 fa3d c644 743d adbf 8bbe e7eb bb3e
00000350: 6a0c 62bd 3f54 80be 0762 afbd 0394 213c
00000360: 4a5f 6f3c ce2a 1ebe 7e25 103d 3d1b a83e
00000370: 9d11 f4bd 2382 343e 1344 f53c 5e79 cbbd
00000380: ae46 ba3d 8d69 953d 6ddd 9b3d e88f f1bc
00000390: 7e0c f63c fe1d 153e 5bd4 4b3e 206c 5cbd
000003a0: fc73 a93b 641a a03d f621 023e 08c5 42be
000003b0: d76f 08be 93a8 4c3d 938f 4a3c c91b 13be
000003c0: b9a2 b1bd 7e02 b3be e9e2 4dbd 87a3 243e
000003d0: d9b0 94bd e903 123e f2a0 cbbd b0c9 793e
000003e0: d18c b5bd 070a 513d 9f0f 9bbd 13ca ca3d
000003f0: e6ef 46bd 96f2 0a3e 05c3 f23d 9af4 35bd
-0.008895412 -0.21775709 0.18139075 -0.14617117 0.09255149 -0.14510937 -0.08374983 -0.19569965
-0.10323807 -0.16689466 -0.16651703 0.17316242 -0.16034365 -0.2022384 -0.15031265 -0.02013769
0.10614739 0.1955564 0.24496585 0.2685251 -0.1539204 -0.0641748 0.19377366 0.13981242
-0.18299386 0.17304127 0.16662982 -0.1535414 0.116881594 0.12681785 0.1908678 0.058985617
-0.19371782 -0.13843267 -0.11431304 -0.0062640444 0.20678653 -0.26798102 -0.03925812 -0.13913049
-0.15920107 -0.1532449 -0.126016 -0.1694298 0.038084246 -0.09962198 -0.025534458 -0.26573852
-0.118462056 -0.1062758 0.21924494 0.17315213 0.12190295 0.15325606 -0.21964571 -0.15133035
-0.18205181 0.1790988 -0.30605197 0.16814287 0.18152364 0.14079481 -0.075842895 0.20204474
0.29182273 0.097455315 -0.04826956 0.1138759 -0.2088033 -0.029409315 -0.15221706 -0.061851747
-0.1675855 -0.18776086 -0.015313991 0.07220253 -0.20742366 -0.13645197 -0.22246255 0.17054383
0.07207018 0.03658914 0.054327514 -0.11719002 0.3190712 0.03245985 -0.11721093 0.10205725
-0.006770429 -0.1961376 0.13202651 0.15168679 -0.12849541 -0.25870857 -0.19811855 0.15004835
-0.12668714 -0.12548564 -0.21501155 0.07048591 0.16386825 0.17955382 -0.21244873 0.17987685
-0.17235303 -0.032999914 -0.15845807 0.13692325 0.16572799 0.17373398 -0.20050156 -0.02161839
-0.17416197 -0.17930697 -0.20775007 -0.15210438 -0.15099767 -0.14686659 0.21165311 0.19218032
-0.18216938 0.1639631 0.25171778 -0.19337551 0.19462804 0.18282436 0.19169618 0.20831035
0.2674959 0.19324261 0.24341401 0.19104274 0.21777882 0.1377843 0.16577843 -0.18790035
-0.15097302 0.20310552 -0.14077096 -0.16343766 -0.20197159 0.1310934 0.17458017 -0.19612736
-0.1548691 0.15483662 -0.15342358 0.17727573 -0.15807673 -0.18574676 -0.20625004 -0.19651538
-0.17962052 0.17006066 -0.16049355 -0.1506064 -0.19843888 0.19614722 0.17439677 -0.20234573
0.19263768 -0.19840011 -0.15319808 -0.20710854 0.22737351 0.17088956 -0.19475311 0.18442999
-0.21334271 -0.15901156 0.15917249 -0.15711622 0.17975813 0.2133202 -0.15247497 0.16235083
-0.2009218 0.17528656 -0.19462779 0.16794758 0.17279601 0.1571214 -0.14828506 -0.19844276
0.18349445 0.16158003 0.20333314 -0.19917503 0.18129398 0.22248052 -0.18934533 0.18307528
0.14042842 0.1751168 -0.1799786 -0.07328594 -0.19964 0.14910972 0.1794681 0.1432142
0.06688732 0.17552853 -0.18127938 0.07044684 -0.042116646 -0.2823547 -0.21163338 -0.16812864
0.12228467 0.0596359 -0.27294675 0.36703417 -0.05518762 -0.25064275 -0.08563619 0.009861949
0.014610121 -0.15446016 0.035192005 0.3283328 -0.11917422 0.17627768 0.029939687 -0.09935258
0.09095512 0.07295523 0.07610593 -0.029487565 0.030035254 0.14562222 0.19905226 -0.053814054
0.005171297 0.078175336 0.12708268 -0.19020474 -0.13323914 0.049965452 0.012363332 -0.14366068
-0.08673615 -0.3496284 -0.050265227 0.16078006 -0.072602935 0.14259304 -0.09942807 0.24393344
-0.08864749 0.051034953 -0.07571339 0.09901824 -0.04856863 0.13569102 0.11853603 -0.044422723

sequential_3/dense_3/BiasAdd/ReadVariableOp f4 [419]
00000000: 030f 79be d4e6 f2bd 530b 1abe 15cb 2abe
00000010: cff4 2fbe 7cce 28be fea6 02be 6ded 75be
00000020: 1d95 31be f1c6 f6bc 9e61 3bbe 08a9 9fbd
00000030: d372 47be b676 0ebe 4bd3 fcbd 56ab d9bd
00000040: 9545 a7bd e2c8 f7bd ad07 d1bd 142a a2bc
00000050: 9f7a e2bd ea1f b8bd 7a2b 8dbd 9fb8 debd
00000060: 8f5c 3fbe 5501 16bb 6661 01bd a2eb fdbd
00000070: e60f b3bd 057b 00be d801 d03d 6ca8 48bd
00000080: f4de f2bd 9e3c d6bd 7af2 1b3e 11fe 853c
00000090: 17dd 83be 6aaf e9bc 0831 43bd ccc0 633d
000000a0: 2e75 3b3d 0fe9 14be bbef 1e3d 1f14 acbd
000000b0: 84ad 6dbd 9dc8 bf3d 4baa 0ebe 43e3 98bd
000000c0: 23d8 003e 8fb0 ffbb 5012 7dbe d3d0 83bc
000000d0: 3948 46be cbb1 593c f49d 15bd 88b7 c1bd
000000e0: 5269 32be 4880 26bd a14e a0bd 2192 bcbd
000000f0: 9a69 fbbd 9cf9 3abe 3e7d 91bd 71bb aabd
00000100: f843 0bbd cf15 44be 495c d7bd fd01 88bd
00000110: 0134 36bd 742b d43d f199 efbd 619a edbd
00000120: 8b5c dabd fb0f 6abd a788 49bd 13e8 9abd
00000130: e387 20bc 6e55 04be 6b2e d6bd 846c 5b3c
00000140: 2a9a 18be 3b92 ccbd 0647 cabb 9b67 0abd
00000150: f89d b03d 195c 453d 184a 5abe dde5 a53d
00000160: 1fe2 0e3d 05ec e43c c3b2 0bbd 7887 96bd
00000170: bcb3 6fbe 98b8 3d3c 30a8 8d3d b364 2bbe
00000180: facb c4bd 4787 04bd 517c 483c 26f4 3cbd
00000190: 415e 033e 5456 cc3d eb9b 9dbd 3d26 363d
000001a0: acc3 59be 6d54 b53d 2bd8 013c 162f bbbc
000001b0: ad65 55be b8ad 02be 02ea f03d 37d8 81bd
000001c0: 80d3 693d 9321 173b a1e0 58be 10a7 5fbd
000001d0: 58fc c2bd 6587 69be a92d 523d 3ddb 2a3d
000001e0: ac7d 88bc 75fd 4cbd e1aa 813d fe23 50be
000001f0: 5e27 853d e878 ea3d 69d4 3d3d d32e d9bd
00000200: a2bc 35be 913c fb3c 1cd1 cbbd f448 083d
00000210: 2c40 af3d 131e 17bd 21cf b3bc 5ba5 dfbc
00000220: 9ee5 d23d c11f 973d 8c95 1e3d 9726 3bbd
00000230: 425c eabc 4d0c 39be cb51 9bbd 1aba af3d
00000240: 306e 41be bd37 fabc 4f6d f53d eee8 6abe
00000250: 72b6 433b 2959 1f3c 2c30 ee3d 655e 73be
00000260: d2ab b23d 90c6 2f3e 17c9 d03d e10f 5f3d
00000270: ea52 d73c 78ed 2fbd 01af c33d 9850 92bc
00000280: 5a05 983d d0cd 46be bf98 bc3d c8a7 cbbd
00000290: ef87 553d c0eb 5fbe e4a5 433d 4916 c13d
000002a0: 0828 40bd b661 ebbd 6743 443d a31f 4cbe
000002b0: a020 1d3c 35bb 543d 3df4 6abe aad4 64bd
000002c0: 29a3 5c3d d0d0 b13d 99e1 4dbe 1bdc c03d
000002d0: 0e7c 463d f12b 493b 3595 f6bc 571f 4abe
000002e0: 9b94 773d 3752 923d a54b 0fbe e8fb 683a
000002f0: e094 923d 2606 65be e415 683d ca64 89bd
00000300: d25c 2abe 2735 c73c 809b 703d 16b6 073d
00000310: f605 3fbe 94ca bc3d ce5f c63d e4f0 93bd
00000320: 60b5 31be 179c 933d a047 e13c 0987 4cbe
00000330: f827 50be 13db 0f3d 8087 0c3d 0ef5 7bbe
00000340: 536b 123d f492 b3bd 1b04 c13c b0cf 4fbe
00000350: 47a7 e63d 7914 f8bb e5f2 4abe c3ce 293c
00000360: 4fc1 f3bb e6d8 88bb c101 56be e431 b83d
00000370: 4409 df3d 7104 a0bd 1d13 58be 5800 173e
00000380: 7aa0 b73d 1263 3ebe 522d 923c 7b8a 3cbd
00000390: e659 63be 4fad 933d 7d0c 133e 2b64 113d
000003a0: f2a1 713c 1726 32bc a9e5 44be c190 9a3d
000003b0: c7c0 89bd db31 71be 665e 26bc 2446 053e
000003c0: b349 35bd decc 77be 4bd0 323d 2d80 4fbd
000003d0: deb9 48be 7c6e 19bd 2f84 223e e7e0 4abe
000003e0: 2372 543d e499 833d fdab 0fbc c694 2fbe
000003f0: 35a6 c33d 201a 4cbe a400 cfbc 0828 323d
-0.24322133 -0.11860433 -0.15043382 -0.16679032 -0.17183231 -0.16485018 -0.12759015 -0.24016352
-0.17342038 -0.03012416 -0.18298957 -0.07795912 -0.19477396 -0.13912472 -0.123449884 -0.10628383
-0.081675686 -0.12098862 -0.10206542 -0.019795455 -0.11058544 -0.08990462 -0.06893058 -0.108750574
-0.18687652 -0.0022888978 -0.031587027 -0.12398459 -0.08743267 -0.12546928 0.10156602 -0.048988745
-0.11858931 -0.104607806 0.15229216 0.0163565 -0.25754616 -0.028526027 -0.04765418 0.055603787
0.045766048 -0.1454203 0.038802844 -0.08402275 -0.058026806 0.09364436 -0.13932149 -0.07465222
0.1258245 -0.00780303 -0.24714017 -0.016090786 -0.19363488 0.013287018 -0.03652759 -0.09458834
-0.17422989 -0.040649682 -0.07827497 -0.092075594 -0.12276001 -0.18259281 -0.07103966 -0.08336533
-0.034000367 -0.19148944 -0.10515649 -0.06641004 -0.04448319 0.103598505 -0.11699284 -0.11601711
-0.106621824 -0.057144146 -0.049202587 -0.07563796 -0.009798023 -0.12923214 -0.10458072 0.013392571
-0.14902559 -0.09988829 -0.0061730174 -0.033790212 0.0862388 0.048183534 -0.21317327 0.081004836
0.034883615 0.027944574 -0.034106027 -0.07350057 -0.23408407 0.011579655 0.06916845 -0.16737632
-0.09609218 -0.032355573 0.012236671 -0.046131276 0.12828924 0.09977403 -0.076957546 0.04447006
-0.21266049 0.088539936 0.007925074 -0.0228496 -0.20839567 -0.12761581 0.117633834 -0.06340068
0.057086468 0.0023060783 -0.21179439 -0.054602683 -0.09520787 -0.22805555 0.051313076 0.04171299
-0.016661488 -0.050046403 0.06331421 -0.2032623 0.06501649 0.11448842 0.04634515 -0.10604634
-0.17747739 0.030668529 -0.09951994 0.0332727 0.08557162 -0.036893915 -0.021949353 -0.027300527
0.10297702 0.073791035 0.038716838 -0.0456911 -0.028608445 -0.18071099 -0.0758396 0.08580418
-0.1888969 -0.030544156 0.119837396 -0.22940418 0.0029863385 0.009725847 0.11630282 -0.23766477
0.087241784 0.1716559 0.10194605 0.054458503 0.026284654 -0.042951077 0.09554864 -0.017860696
0.07422896 -0.19414449 0.092088215 -0.09944111 0.05213159 -0.21867275 0.047765628 0.09428079
-0.046913177 -0.11493246 0.047915842 -0.19933943 0.009590298 0.051936347 -0.22944732 -0.055866875
0.05386654 0.08682406 -0.2010559 0.09416982 0.04845815 0.0030696357 -0.030100444 -0.19738518
0.060444456 0.071445875 -0.139937 0.00088876346 0.07157302 -0.22365627 0.0566615 -0.06708677
-0.1663697 0.024317337 0.058742046 0.033132635 -0.18654618 0.09218326 0.09686242 -0.072236806
-0.17354345 0.07207506 0.027499974 -0.19973387 -0.20327747 0.035121035 0.03430891 -0.246052
0.035746884 -0.087682635 0.023561528 -0.2029407 0.11262374 -0.0075708 -0.1981922 0.010364237
-0.0074388157 -0.004176247 -0.20899107 0.08993891 0.10890439 -0.07813347 -0.21101041 0.14746225
0.08966155 -0.1859248 0.017843876 -0.046030503 -0.22202262 0.0721079 0.14360233 0.03549592
0.014748083 -0.010873339 -0.19228233 0.07547141 -0.067262225 -0.23554175 -0.010154342 0.13015038
-0.04425974 -0.24199244 0.043655675 -0.050659347 -0.19602153 -0.03745888 0.15870737 -0.19812356
0.05186666 0.06425837 -0.008769033 -0.17146596 0.09553186 -0.19931841 -0.02526886 0.043495208

sequential_3/dense_3/MatMul f4 [419, 100]
00000000: 1233 003e 5aef 79bd 7488 58be f85c 2f3d
00000010: e1f0 433e cb69 b73d de49 31bf 3156 613e
00000020: 8f2c d9bd 741f fcbd 8072 66be 81d8 0c3e
00000030: 503b 66be 76a3 96be bbfa 183e 4a98 1fbe
00000040: 1276 6dbe c5bb 88bd 603b d03d 8135 14be
00000050: 92a6 1a3e a1ba 01bf ccdf c73d 6a38 a53d
00000060: 2eee fd3c 7d09 103e 377f 68be 831b 953d
00000070: 0a79 f03d 26f2 2d3e 70d5 5a3d eebb cd3d
00000080: af29 52be 6d7e d13d 4afb 63be f420 34be
00000090: b39d 9a3d b170 0dbe 88a6 3cbf b45a 28bd
000000a0: eb72 dbbd b068 06bf 9b17 2d3b c7c0 ef3d
000000b0: 7a4c 0abe b8b0 94bd 7e11 6d3d ca5a b33e
000000c0: 90d7 683d 6a91 60be fb4a 5ebe 2d12 c0be
000000d0: 32d2 f73c 6423 033e 8011 d5bd ae51 923d
000000e0: 570a 51bd 37d8 923e 031b e43d 61d2 093e
000000f0: c5a4 e03d 0676 eabe 90ca 4dbe a312 fd3d
00000100: 541e aebe d1f1 d63d b460 0ebe a71e 7fbe
00000110: 94bd 18be a179 2f3e 5f6c ab3d a166 8ebd
00000120: 27c3 bb3d 7564 893d 525a 2d3f 6643 b1be
00000130: bf74 80bd 4821 edbd f9f1 a83d d03f f43d
00000140: 6c1c 1ebe 6457 b4bc 25b4 81be ff51 f4bd
00000150: 364e f1bd 9f4a cebc 775a c23d 2a16 e13d
00000160: f7d3 34be a25b ee3c f68e 6d3c 4a17 613e
00000170: 2afa 513e c4f5 ecbd b11f 103e 2f0b 243e
00000180: 6c63 2dbe 36d7 b43d 1cf2 363e acca cabd
00000190: 6f59 77be 622e c83e ddad b23d d374 84be
000001a0: ce84 5cbd cf1a 5bbe e27c 8ebf 7db3 2d3e
000001b0: d2c8 3f3e 6ae2 2e3e 14a7 773c ba89 2abe
000001c0: c929 223e db1d 0ebe bf77 8fbe 22e0 5cbd
000001d0: 53b2 7e3d ce4c 753e 87a6 0ebe e225 733e
000001e0: 8770 a23c 788f 1bbf 1781 0fbe e84b 473d
000001f0: 62f3 58be 70be e63d 47aa 2e3e 93dd fdbd
00000200: 09bc e3bd 636a 833e 085e fdbc 736e 893c
00000210: d5e1 093e bd98 3cbe 6ea4 5d3d 71e0 a73c
00000220: 55cc 35be 1293 0b3e e3a7 6bbf 0ead d93d
00000230: 89ca fd3e a487 17bf 67a7 953e 6778 d0bd
00000240: d205 933d ffc3 a13e 1d2f 0fbe eb5e 603e
00000250: f740 2abd af0e 413e 9466 183e 81c0 75bf
00000260: 2c0e 0ebe 2426 80be d6a8 6f3e 8ea7 4abe
00000270: c2a5 2bbe ee01 a8bc 7e67 6bbc febf 4ebe
00000280: dab3 3ebe 2654 c8be 1cc3 703e d269 d0bd
00000290: ed0f d3be d53f 6cbe 4e4e a13c e3f5 193d
000002a0: 537a 823d 0dcf 2abe e20b e0bd 5ae6 8d3e
000002b0: 0ce2 3cbe 6b87 223d a78c 8d3f e207 cabe
000002c0: 63fd 673e 2e57 2f3e 252c 15be 3f21 41be
000002d0: a549 573e 97b3 483d 1f4d 673d 81d9 c33c
000002e0: 8f63 f23d 6526 94be d814 5c3d d009 3a3d
000002f0: 6cb7 9a3d 7792 4dbe 4437 353e 9e5d d0bd
00000300: 8ce6 8c3d 071a 683e 0ba8 e7bd baca 77be
00000310: 4e2e 81bd 65cb 47be 4d06 27be 930c 213d
00000320: 6adc 26bd d2b6 d63d af2b 303d 6d77 babe
00000330: 6dd6 8ebe 5da3 4a3e 77e5 d23d f437 6cb9
00000340: 6824 52be 0e15 b4bd 954a d53d 32e6 59be
00000350: 1082 2d3e 0b3d 6bbe 89ec a7be 6e52 113c
00000360: f7cd 72be b002 043e 0fd6 8cbe 81f2 023c
00000370: 2a14 25be 7a60 eabc b493 7bbe 3460 f5bd
00000380: c08e 33be fd9e 1cbd 94cf 863e 4992 66bd
00000390: 58dd a2bd 2c8c 4fbe 3143 22be b3c8 00be
000003a0: 95d1 adbe 3e6c d63b 107e 943d e52b 58be
000003b0: 8b0c dd3d c8d4 ccbc 9585 15bd 2ff4 763e
000003c0: 2175 94be 1661 07bf dc43 593e 6ec3 583d
000003d0: dd17 39bc c002 cdbd 11e6 cdbd e29a 1a3d
000003e0: 5cde 333e 448f d5bd 0c76 1b3e 54cd d23c
000003f0: 8929 c8be aa4d 35bc 2332 3c3e dfb9 753d
0.12519482 -0.06101928 -0.21145803 0.04281327 0.19134857 0.08955725 -0.6925334 0.22005536
-0.10604202 -0.12310687 -0.22504616 0.13754465 -0.22483563 -0.29421586 0.14939396 -0.15585437
-0.23189571 -0.06676439 0.10167575 -0.14473535 0.15102604 -0.506754 0.09759483 0.08067401
0.030997362 0.1406612 -0.22704779 0.07280638 0.11741836 0.16986904 0.053426206 0.1004561
-0.20523714 0.10229192 -0.22263828 -0.17590696 0.0754961 -0.1381252 -0.73691607 -0.041102126
-0.10715278 -0.5250349 0.0026411775 0.11706691 -0.13505736 -0.07260269 0.05787801 0.35030204
0.0568462 -0.21930471 -0.2170829 -0.37513867 0.030251596 0.12806469 -0.104037285 0.071444854
-0.05103525 0.28680584 0.111379646 0.1345916 0.10968927 -0.4579317 -0.20096803 0.1235707
-0.34007514 0.104953416 -0.13904077 -0.24914037 -0.14916068 0.17136241 0.083702795 -0.06953169
0.09168082 0.06708614 0.6771594 -0.34621733 -0.062722676 -0.115786135 0.082492776 0.11926234
-0.1544053 -0.022014327 -0.25332752 -0.11929702 -0.11782496 -0.025182066 0.09489911 0.109905556
-0.17658983 0.029096428 0.014499417 0.2198154 0.20505586 -0.115703136 0.1407459 0.16019891
-0.16932458 0.08830111 0.17865795 -0.09901938 -0.2415521 0.39097887 0.08724568 -0.2587038
-0.05383759 -0.21396945 -1.1131861 0.16963 0.1872895 0.17078558 0.015115518 -0.16654101
0.15836252 -0.13878576 -0.28021047 -0.053924687 0.062181782 0.2395508 -0.13930713 0.2374492
0.019829048 -0.6076579 -0.14014088 0.048656374 -0.21186593 0.11266792 0.17057143 -0.123957776
-0.11119849 0.25667104 -0.030928627 0.0167763 0.13465054 -0.1841764 0.05411189 0.020492764
-0.17753728 0.13630322 -0.9205305 0.10628711 0.49568585 -0.59191346 0.2922928 -0.10179215
0.071788445 0.31594846 -0.13982816 0.21911208 -0.04156586 0.18853258 0.1488288 -0.9599686
-0.13872594 -0.250291 0.2340425 -0.1979048 -0.1676245 -0.020508733 -0.014367936 -0.20190427
-0.18623295 -0.391267 0.23511928 -0.101764336 -0.41223088 -0.23071225 0.019690659 0.03758801
0.06370988 -0.16680546 -0.109397665 0.27714807 -0.18445605 0.039679926 1.1058549 -0.3945914
0.22655253 0.171231 -0.14567621 -0.18860339 0.21024187 0.048999395 0.056470033 0.023907425
0.118353955 -0.28935543 0.053730816 0.045419514 0.07554516 -0.20075403 0.17696863 -0.10174106
0.06879911 0.22666179 -0.113113485 -0.24198428 -0.0630766 -0.19511183 -0.16310997 0.039318632
-0.040737547 0.10484089 0.04301041 -0.3641924 -0.2789797 0.1978888 0.10297673 -0.00022527558
-0.205217 -0.08793078 0.10414616 -0.21279219 0.16944146 -0.22972505 -0.3279765 0.00886975
-0.23711382 0.1289165 -0.27507064 0.007992388 -0.16120973 -0.028610457 -0.24568063 -0.1198124
-0.17534924 -0.03823756 0.26330245 -0.056291852 -0.07952374 -0.20268315 -0.15845944 -0.1257656
-0.3394896 0.006543665 0.07250607 -0.21110494 0.10793408 -0.025003806 -0.036504347 0.24116586
-0.28995612 -0.52882516 0.21217293 0.05292075 -0.011297193 -0.1001029 -0.10053647 0.037745364
0.17565292 -0.104277164 0.1518175 0.025732674 -0.3909419 -0.01106588 0.183785 0.059991714

sequential_3/lstm_3/Read_2/ReadVariableOp1 f4 [400]
00000000: 82be 1e3d 65fb 333e 3cbf 813d 2d73 a13e
00000010: f52f e93c d651 da3d 0394 623e 4e01 803d
00000020: c166 303e 41c1 183d 76c3 873d 3b79 263e
00000030: 4144 e33c f84c 083d 25f3 cf3d f983 483d
00000040: 7ad4 073d dac8 f73c 42e8 003d 9512 043d
00000050: 8504 3a3d dcf0 243d 6eca 033d 814f 0b3d
00000060: 6bd4 113d 3eb8 593d b497 0b3d b67b e13c
00000070: eee3 103d 5d50 e93c cf08 953d b121 173d
00000080: 3296 183d bb53 553e 15b0 0c3d f916 963d
00000090: c437 e53d 9ae6 163d 25d5 943e 1d5d 0d3d
000000a0: 7a1e 413e 02f2 843c edcb 233e e39c 543d
000000b0: a9fb 373d a45b 573e 5b59 0b3d e7d9 193e
000000c0: 6f61 e03d 1ac2 ff3c 7b50 d83c d3b7 d63d
000000d0: bbfa 203e b17f 0f3d 1ca4 e03d eff3 1c3d
000000e0: a088 133e eda2 013d 33b0 e93c 1e51 0d3e
000000f0: 0a4a 193d 5daf 273d 2332 143d f56f 823e
00000100: d71e 463e e87f 8b3d aa6b 023e 7674 e13d
00000110: 006b fd3c 4806 2e3e d434 ea3c 5335 263d
00000120: bb02 6d3e af9d 173e 8475 ec3d 256f 973d
00000130: 5714 073d 7c3c 3a3e d4c5 1b3d 34ed f63c
00000140: e8e2 2a3d 61ed 723e f64f a53d 85a5 603d
00000150: 6fa1 d83c 8437 d13e 3fb3 e13c 5b05 2f3d
00000160: 55b2 123d 8f9e 313d 4214 723e 0c97 2e3d
00000170: 4f95 0f3d aaca 093d 71ea 763c 73c2 283d
00000180: 54d9 643e b662 c33e 5e7c 013d e7c4 003d
00000190: 020b 853f 2d19 883f bdb2 823f 1402 633f
000001a0: a28d 833f 019f 7f3f 6abc 863f 8b2b 853f
000001b0: 06cc 813f 1ed1 853f 76c6 823f 891c 8a3f
000001c0: 3087 843f be5a 853f dedf 853f 6d1e 823f
000001d0: eceb 843f cfaf 843f 6437 843f d3c7 843f
000001e0: 8010 853f c45c 8b3f b7f3 843f 9b44 843f
000001f0: 98c7 843f 590e 853f b5ad 863f 5279 833f
00000200: d28d 843f 3126 843f 040d 863f 4e68 863f
00000210: 9d05 853f b751 853f 28ed 853f c8f5 7f3f
00000220: 71d3 853f b573 843f 8d2c 853f 3805 853f
00000230: fee6 7b3f a144 863f 1f7a 913f afbe 833f
00000240: 2b8e 843f a411 8a3f fa4a 843f 0233 693f
00000250: e602 873f 3e2e 843f fde5 833f 9f6c 813f
00000260: 28e3 7e3f 048f 843f a1cb 873f 50a2 853f
00000270: e6bf 813f cde8 843f 61cf 843f a99d 733f
00000280: 7f19 853f c182 893f 5154 853f c9a2 873f
00000290: 5aa7 833f 92fd 863f 843a 873f 4cb3 853f
000002a0: a698 843f 859a 803f 5b52 843f 7b52 863f
000002b0: d2d8 853f 9e3d 7b3f f5d7 833f e65f 853f
000002c0: f340 843f 6425 813f 435d 853f ffa9 843f
000002d0: 9d77 843f e0c8 8f3f 04ea 823f 518b 893f
000002e0: 8284 843f 9677 7f3f 9615 853f aeb9 843f
000002f0: b3dd 843f 0318 833f 0078 8c3f 5db8 863f
00000300: 4de7 843f fb44 853f 1886 843f 3db1 843f
00000310: 87db 853f cfcb 863f a95d 843f 0d30 853f
00000320: 8a71 06bd f80f 1dbc d01a d73c 206a 053d
00000330: 6f96 03bd a204 16bc 1327 4f3b 02eb dbbc
00000340: 6518 15bd d702 063d 52f4 d13c 7c6d a3bc
00000350: d25c ff3c 6132 fc3c 4358 d7bc 569b ed3c
00000360: 473a 043d 83da 043d eace 01bd 0149 013d
00000370: 2da4 dfbc 1c50 813b 7762 fdbc dd57 fabc
00000380: 760b 04bd 452c d0bc 00d8 0c3d 24da 00bd
00000390: 8f50 02bd 6bc3 ddbc c688 a8bc 083c e1bc
000003a0: b125 023d 574a e03c 6805 f83c 1d10 dd3c
000003b0: 03e3 90bc 9656 043d 09f4 a2bc 805f 013d
000003c0: d611 cd3d 597e 993c 2c13 b13c e7aa e2bc
000003d0: e658 e83c 9b2b d53c 1cb7 00bd 81f3 873c
000003e0: 825f 0fbc dd8e 083d 0522 003d 4958 9cbd
000003f0: 5127 e2bc 4811 03bd eb85 973c 1452 f1bc
0.0387559 0.17576368 0.06335303 0.31533185 0.02846525 0.1066014 0.22126774 0.06250249
0.17226698 0.037293676 0.06629078 0.16257183 0.027742507 0.033276528 0.10153798 0.048953984
0.033161618 0.03024714 0.0314715 0.032244284 0.045414466 0.040268764 0.032175474 0.034011368
0.03560297 0.053154223 0.034080222 0.02752481 0.03537362 0.028480703 0.07277071 0.036897365
0.037252612 0.20832722 0.034347612 0.073286004 0.11192277 0.036841013 0.29068866 0.034512628
0.18859282 0.01622868 0.1599576 0.05190743 0.044917736 0.21031052 0.034020763 0.1502453
0.10956084 0.031220485 0.026405564 0.104842804 0.15720646 0.035033885 0.109688014 0.03831857
0.14407587 0.03164952 0.028526401 0.13800475 0.037424125 0.040938724 0.036180627 0.2547604
0.19347702 0.068115056 0.12736383 0.11008541 0.03093481 0.16994584 0.028589644 0.040578198
0.23145573 0.14806245 0.11545852 0.07394246 0.032978382 0.18187135 0.03803046 0.030142404
0.0417203 0.23723365 0.08071892 0.05484535 0.026444165 0.40862668 0.027551292 0.042729717
0.035814602 0.043364104 0.2364054 0.04262452 0.0350545 0.03364054 0.015070544 0.041201066
0.22348529 0.38161248 0.031612746 0.03143778 1.0393984 1.0632683 1.0210797 0.88675046
1.0277598 0.99851996 1.052625 1.0403913 1.0140388 1.0454443 1.0216815 1.0789958
1.0353756 1.0418317 1.0458944 1.0165535 1.0384498 1.0366153 1.0329404 1.0373482
1.039566 1.0887685 1.0386876 1.0333437 1.0373411 1.0395004 1.0521761 1.0271399
1.035578 1.0324155 1.0472722 1.0500581 1.0392338 1.0415562 1.0462999 0.9998441
1.0455152 1.0347811 1.0404221 1.0392218 0.9839934 1.0489694 1.1365393 1.0292567
1.0355886 1.0786633 1.0335381 0.91093457 1.054776 1.0326612 1.0304562 1.0111274
0.9956536 1.0356145 1.0609018 1.0440159 1.0136688 1.0383545 1.0375787 0.95162445
1.0398406 1.0743028 1.0416356 1.0596553 1.0285447 1.0546134 1.0564733 1.0445342
1.0359085 1.0047156 1.0337633 1.0493921 1.0456793 0.98140895 1.030028 1.0419891
1.0332321 1.0089536 1.0419086 1.0364379 1.0349003 1.1233177 1.0227666 1.0745641
1.0352938 0.9979185 1.0397213 1.0369165 1.0380157 1.0241703 1.0974121 1.0525013
1.0383087 1.0411676 1.0353422 1.0366589 1.045762 1.0530947 1.0341083 1.0405289
-0.032823123 -0.009586327 0.026257902 0.03257191 -0.032125887 -0.009156378 0.0031608983 -0.026845459
-0.036400218 0.032717552 0.025629196 -0.019949667 0.03117219 0.030785741 -0.026287204 0.029004734
0.03228214 0.03243495 -0.03169147 0.031563763 -0.027299965 0.0039463174 -0.03093074 -0.030559475
-0.032237493 -0.025411734 0.03438568 -0.031458035 -0.031815108 -0.027070722 -0.020573031 -0.027494445
0.031774227 0.027379198 0.030276015 0.026985222 -0.017686373 0.032309137 -0.019891756 0.031585217
0.100131676 0.018737005 0.021615587 -0.027669383 0.028362703 0.02602177 -0.031424627 0.016595604
-0.008750798 0.03333937 0.031282444 -0.076340266 -0.027606638 -0.031998903 0.018496474 -0.029458083

while/MatMul_11 f4 [400, 100]
00000000: 5318 09bd 008c 2d3d 7348 8e3d fb18 04bd
00000010: c9a6 66bd 370f 95bb 7c9c ac3d aaac 213d
00000020: 580a 8e3d 2165 59ba 59a3 8f3d bdd8 883c
00000030: c2c4 b63d e0d2 85bb 51f6 22bd 9db0 013e
00000040: 86e6 a23d 9967 953d d63f 9fbb 22d1 8fbc
00000050: ef65 d5bc 5ab5 1f3e 1344 b0bc bb15 fabc
00000060: d9fc 0dbd 033f 31bd 4e1a 2f3c 54a1 c8bd
00000070: ffa2 263c 674e de3c e430 aabd 7d3b 513d
00000080: c631 3c3c 3c4a 20bd a46b a23c 3b57 d73d
00000090: e798 f8bc 52c2 8fbd c230 4f3e 8ecb a73d
000000a0: c201 b13d e41e f73c 387a e13c 8444 da3d
000000b0: 2649 bf3d 8977 d73d 74e2 01be 3eea 02bd
000000c0: 7e52 0cbe e0e2 59bd ecc2 673d dcd5 5b3e
000000d0: 9883 0abd 548a 7abd acd3 4dbd 6a6a 25bc
000000e0: e82a bc3c 3c37 47bd 5fc4 5bbd 15f3 cebb
000000f0: 6264 0ebb 9ef4 0d3c fe86 5d3d f0ae 563b
00000100: cc72 c43c 690f c9bc c4d1 e33d 1333 9f3d
00000110: ab9a 643d 6ae8 2ebc 878a f9ba 0bb0 6d3c
00000120: 7afa 94bd 2868 ae3b 05e8 2ebe b74d d13c
00000130: b2d0 813d 75cd b2bc a1d9 98bc 9358 9ebd
00000140: d721 1f3d ad3b a53d 4aef c33d a973 ed3c
00000150: e216 1c3d ca11 053e bd6e b53b 5eeb 21be
00000160: e5e3 bd3d 6bfa eebc 2f4f 313d 6628 2cbd
00000170: 350a 4ebd 68c7 fc37 9a9c 59bd 0e28 aabb
00000180: a70d 8bbc 9cf5 26bd acdd 5fbd a5e4 053d
00000190: 24cf 1fbe 0cd4 f03e 7b8a 973e 1552 10be
000001a0: efe8 0dbe 2220 afbc c289 813e 043a 3dbd
000001b0: 8d41 1c3f 6385 b33e 6935 763e 4dca cbbd
000001c0: 6bbb a03e ae4e 4a3e 08cd a6be f6f1 8b3e
000001d0: b5ec dd3d 6738 bf3d 84e1 653d 9d91 843c
000001e0: 3d36 38be 6a65 633e ea0d d6bd 4d62 0dbe
000001f0: 7476 03be 8fda a3be 91bf f83d 7f9f 3bbd
00000200: 2e5e 0abd bed9 e9be 2d64 23be 6101 0bbe
00000210: 0c97 5d3e 233b 1abe df8d 393e da8a 183e
00000220: 6843 90bc c4fb 873e 3b5e b63d c203 5e3e
00000230: 5c81 1f3d 5577 8b3e 44bb 39bd 4339 28be
00000240: 27f4 293e 22ed d83e 280d f6bd f51e 28bd
00000250: 1bde 21be d60c bb3d ae9b f63d 0d05 a8be
00000260: ee7d c7be 1152 77be 058a cd3e 07d5 c8bc
00000270: 2d88 ab3e bd9f 6dbe 3abc 99be 7da3 04bf
00000280: 530d efbd fbfd 8f3e 1382 423e 9f77 c8bd
00000290: 64b5 bbbd eb88 ebbd e173 8abd 83f2 cebd
000002a0: 4ca8 103e 7ba7 64bd 2ee2 eabd b2b4 cd3e
000002b0: e29d dd3c 8ccd 24be 77bc 99be 586d 7c3e
000002c0: e5c8 953d 4e5d 873c a13e 26bd 96a3 03be
000002d0: b61a fa3d 7e29 6d3e c737 853e 84a2 953e
000002e0: b9a4 563e d307 913c c0be 4cbe e501 30be
000002f0: 4f78 663e f3ef 60be 1307 7ebd ab59 39be
00000300: a9b1 47be 68a4 0b3e 65e4 bebe a64a 3cbe
00000310: b052 843e cf76 ca3e f26b 60be e2c7 a23e
00000320: 1618 db3c b25f 05bc 2650 c53d 2270 043e
00000330: ee47 02be 8856 84bd 2a3e d63e 340e 00be
00000340: 94d3 b1bd 7114 8b3d adff 8e3d ff07 e2bd
00000350: d3d6 1abb b685 853e 95ea 31be b28f c93d
00000360: 4167 223e f1fd 47bb 4437 31bd 9d08 633d
00000370: 0c3e 463c 4288 bf3e 6814 80bc 0e26 edbd
00000380: b787 a73c 1dd1 88bd a8ea bc3b c551 d7bd
00000390: a119 80bd c948 67be d498 aabd a1b0 82bd
000003a0: 722a df3d 298b 37bd a331 f33d c6bd c8bb
000003b0: 194e 433d 427d 143e a811 8d3e 71b3 ba3d
000003c0: 9831 a13d 702d ea3e 6614 f2bd 9d3e 54bd
000003d0: 1727 a939 1f86 e23c e85e bbbc 9104 163d
000003e0: 4694 853d 8865 843d 3aa4 823d 5843 07be
000003f0: 8386 233d 4f7a 13bd b369 8e3d ef65 0bbd
-0.033470463 0.042369843 0.06947412 -0.032250386 -0.056311402 -0.004548933 0.084282845 0.039471306
0.06935567 -0.00082929624 0.07013578 0.016704911 0.08924247 -0.004083976 -0.039785687 0.12665029
0.07954125 0.0729515 -0.0048599048 -0.017555777 -0.026049582 0.15596524 -0.021516835 -0.03052794
-0.034664962 -0.043272983 0.010687424 -0.09796396 0.010170697 0.027136995 -0.083101064 0.051082123
0.011486476 -0.039133295 0.019826718 0.10514685 -0.030346347 -0.070194855 0.20233443 0.08193122
0.086429134 0.030166097 0.027524099 0.106575996 0.09340124 0.105208464 -0.12684041 -0.031961672
-0.13703343 -0.05319488 0.056582376 0.214683 -0.033816904 -0.061167076 -0.050250694 -0.010096172
0.022969678 -0.04863666 -0.05365407 -0.0063155987 -0.0021727313 0.008664278 0.054083817 0.003275808
0.02398052 -0.024543481 0.11123994 0.077734135 0.055811565 -0.010675529 -0.0019038477 0.014507304
-0.07274337 0.005322475 -0.17080696 0.025549753 0.063386336 -0.021826485 -0.018658461 -0.07731738
0.03885063 0.08068023 0.09567125 0.028985815 0.03810776 0.12995067 0.0055368827 -0.15812442
0.09271983 -0.029172143 0.043288406 -0.042030714 -0.050302703 3.0133597e-05 -0.053127863 -0.005192763
-0.016974283 -0.040761575 -0.054654762 0.032688756 -0.15606362 0.4703678 0.2959784 -0.14093812
-0.13858388 -0.021377627 0.25300413 -0.046197906 0.6103752 0.35062703 0.24043812 -0.09950695
0.3139299 0.19756576 -0.325783 0.2733304 0.10836164 0.0933693 0.05612327 0.016182715
-0.1798944 0.22206655 -0.10451873 -0.1380703 -0.12838155 -0.32002684 0.121459134 -0.045806404
-0.033781223 -0.45673937 -0.15956183 -0.13574745 0.21639651 -0.15061621 0.18120526 0.14896718
-0.017610267 0.2655927 0.08904692 0.21681121 0.038941726 0.2723948 -0.045344606 -0.16428094
0.16597043 0.42368418 -0.12014228 -0.041045148 -0.15807383 0.09133308 0.12041412 -0.32816353
-0.38963264 -0.241524 0.40144363 -0.024515642 0.3350233 -0.23205467 -0.30026418 -0.51811963
-0.11672463 0.2812346 0.18994932 -0.09788441 -0.09165457 -0.115007244 -0.067603834 -0.10104849
0.141267 -0.055823784 -0.114689216 0.40176922 0.027052823 -0.16094035 -0.300266 0.24651086
0.07313708 0.016523983 -0.04058707 -0.12855372 0.12212126 0.2316036 0.26019117 0.29225552
0.20961274 0.017703926 -0.1999464 -0.17188223 0.22506832 -0.21966533 -0.062018465 -0.18100612
-0.19501366 0.13636935 -0.37283626 -0.18387851 0.25844336 0.3954377 -0.21916178 0.31793123
0.026744884 -0.008140491 0.09634428 0.129334 -0.12722751 -0.06461817 0.41844302 -0.12505418
-0.086829334 0.06791008 0.0698236 -0.110366814 -0.002362658 0.26078576 -0.17374642 0.09841861
0.158597 -0.003051635 -0.043265596 0.055428136 0.012099754 0.37408644 -0.01563473 -0.11579524
0.020450456 -0.0668051 0.005765278 -0.10513643 -0.06254888 -0.22586359 -0.08329931 -0.063813455
0.10896768 -0.044810448 0.11874702 -0.0061261384 0.0476819 0.14500907 0.27552533 0.09116257
0.078707874 0.4573779 -0.11820297 -0.051817525 0.00032263316 0.027651845 -0.022872403 0.03662545
0.065224215 0.06464678 0.0637898 -0.13209283 0.039923202 -0.036005314 0.06953754 -0.03403276

while/MatMul f4 [400, 100]
00000000: b386 4d3d f7f5 d4bc aa19 473d a03d 9fbd
00000010: 8dfb 3d3a fb4a cbbd 6bbe bc39 7357 8fbd
00000020: b3a2 923d faf0 a1bd 4450 85bd ea3b 61bd
00000030: a8bb 85bd b63c febd 4e66 763d 10c2 3ebc
00000040: 8324 0dbe eef5 3bbd 8edf 523d e041 64bd
00000050: 952b d93c 2f91 63bd 7c2d 0f3e 539e 4dbd
00000060: 07e2 fe3c 64b8 2abd bfd0 a9bc 8e79 47bd
00000070: 6a33 0b3e 90ad 0dbd e620 c63d e0cb ae3d
00000080: e0ea a63d d57b 93bd 224e e23d cd0e 0a3d
00000090: ee59 f03d 6810 64bd b594 913d fb36 053d
000000a0: b9dc bbbd 7cb6 05bd 61e1 9fbd 8e5b 493d
000000b0: db97 9b3d 63b3 3a3d f53c edbd 3e3c dcbd
000000c0: 39c0 06be d08e c2bd 29b9 353c 23b9 14bd
000000d0: b1c7 023d fd20 c63c 7518 d8bd 92b0 25bd
000000e0: ec5c 94bd 2ceb 0b3e 499f 273d a113 063d
000000f0: 6b03 7abd b041 6f3c 1e31 973d cc3d c2ba
00000100: 9c98 703d de1d 17bd fd16 8e3d 252e 5bbd
00000110: 6ac8 87bd 641f 32bd 229c 0fbe 709c 01be
00000120: e7d8 02bd 6d2d bd3c e14e c53c 53bb c63d
00000130: 295b a7bd 2195 91bd f869 01bd aee0 57bd
00000140: 7e04 4d3d 21ff ad3c f467 fabd 18a3 b03c
00000150: 3197 033e 32d3 263d eb9e 9abc b82c 1f3d
00000160: 3575 47bd 5afb 0abc d49b 1abc 4aab d7bc
00000170: e299 b3bd c3ef 9ebd 7658 0dbe a970 023e
00000180: d54d 13be 15c4 d5bd 8ac7 383d 65cd a6bc
00000190: 8c89 98bd f62c 21be e4e7 6c3e 938d 803e
000001a0: 0d1a 293e d544 47bd ca2e eabd 3313 33be
000001b0: 56e3 60be fe7f ad3d d8f5 1dbf ad44 94be
000001c0: 210b 38bf d6ea 21bf 9f4e 10bf c895 01bf
000001d0: 34eb f9bd 4092 823c 6d58 853e e0cd da3e
000001e0: cbd3 14bf 9c9b c73d 9e19 113f b009 8d3d
000001f0: 9198 f1bd fb57 243f 76c0 a63e 394a 223c
00000200: 1629 f33e c37a ad3d 1ffa e63b 6b71 bc3d
00000210: f148 cabd 6c79 5e3d d0cb ecbd b8d1 3fbe
00000220: 22b6 78bd f25c f93c 840d 163e 6b09 00bf
00000230: 9de9 0bbf 0df7 37bf 5c66 c03d e0c8 8fbe
00000240: fe57 78be 3ca0 f93d 61bf c2bd 6638 c3bd
00000250: 8db0 91be c832 14bf 2f60 a53e 41b9 1f3e
00000260: 72c1 d83d 9374 1b3f 619c 10bf f35e fbbe
00000270: 9177 46be 8bfc 133f 8c89 cabe 3754 a03e
00000280: 1be4 c23d 83b2 2b3e 277a 2ebf 0516 f43d
00000290: 4426 2d3f 1156 ab3e f064 8ebe e457 f93e
000002a0: b8a5 39bf 1afc 68be 2072 a33d 017f d5be
000002b0: 4afb b5be 18f4 3cbd aea5 883e 6e4e 1f3f
000002c0: eae0 d8be fda1 3ebd e7ba d1be 51e8 d83e
000002d0: b53b 2f3d 7520 123e 9e36 f8be e625 e8be
000002e0: 9e26 1d3f c656 893e 4231 98be 413c 96be
000002f0: ce42 573d 5ce6 07bd c727 4cbe cc3f 3e3f
00000300: c5f3 3d3e 043f 3ebe 06a7 afbe f8f8 7a3a
00000310: 426c 21bf 839e 813c 0edb 05be 0ba5 9c3d
00000320: 4a1a 9c3d 5554 60bd c301 123e c25e e9bb
00000330: 7ffd 703d 2033 dcbd 6a54 c13c aa3b 9abd
00000340: ca9e dcbd 49b6 91b9 9532 48bd 8985 4a3d
00000350: 4f48 513d 5e6c 1a3d 9dbb 303c 5801 383e
00000360: f888 883b 8884 643e d089 fcbc eefc 91bc
00000370: 70b7 03bd 397b cdbd 8690 22be 57f0 993d
00000380: c5a3 783c 2ba2 bcbd 35f9 53be 7817 28bd
00000390: 377a 01be e093 b7bc 2719 c5bd 8e6a 863e
000003a0: de2a b13c b6dc 79bd 8189 ff3d 0e47 b33d
000003b0: e55c f33d ebaa e1bd 544d 32be 0abd 33bd
000003c0: ec2a 163d 8ff8 4fbd e6ca 13bd 0099 183e
000003d0: ced1 fdbd 9e47 233e 3b67 113d 05b7 b7bd
000003e0: 2da1 843d 60f4 443d 8bd9 073e 90bf 183e
000003f0: 1273 9bbd 79c3 023e 1268 a53d f02d 2a3e
0.050177287 -0.025996191 0.04860846 -0.07775426 0.0007247262 -0.09926411 0.00036000027 -0.069991015
0.07159939 -0.07907291 -0.0650945 -0.05498878 -0.06529933 -0.124139234 0.06015616 -0.011642948
-0.1378346 -0.045888834 0.05148273 -0.055726886 0.02651004 -0.05555838 0.13982195 -0.050199818
0.031113638 -0.041679755 -0.02072942 -0.048699908 0.13593832 -0.03458935 0.09674244 0.0853498
0.081502676 -0.072013535 0.11050059 0.03370552 0.11735903 -0.05567971 0.07108442 0.032523137
-0.09172959 -0.032644734 -0.078066595 0.04915958 0.075973235 0.045581233 -0.11583892 -0.10753678
-0.13159265 -0.094998956 0.011091509 -0.036309373 0.03192872 0.024185652 -0.1055154 -0.040451594
-0.07244286 0.1366393 0.04092339 0.032733563 -0.061038416 0.014603063 0.07382415 -0.0014819442
0.05873929 -0.036893718 0.069379784 -0.053510804 -0.06630023 -0.043486968 -0.14024404 -0.12657332
-0.031945135 0.02309295 0.024085464 0.09703698 -0.08171684 -0.07108522 -0.0315952 -0.052704506
0.050053112 0.021239819 -0.12226859 0.021562144 0.12850644 0.040728755 -0.018874606 0.038861006
-0.04869576 -0.008482778 -0.009436566 -0.026326794 -0.08769585 -0.07760575 -0.13803276 0.12738289
-0.1438516 -0.1043779 0.04511217 -0.020361612 -0.0744811 -0.15739807 0.23135334 0.25108013
0.16513844 -0.048649628 -0.114347056 -0.17487793 -0.21961722 0.08471678 -0.6170325 -0.28958645
-0.7189198 -0.63248956 -0.56369966 -0.50619173 -0.122030646 0.015938878 0.26044026 0.42735195
-0.5813567 0.09746477 0.56679714 0.06886613 -0.11796678 0.6419675 0.3256871 0.009905391
0.47492284 0.084706806 0.0070488597 0.0920132 -0.09877194 0.054315016 -0.11562312 -0.18732345
-0.06072057 0.030439828 0.14653593 -0.5001437 -0.5465334 -0.71861345 0.093945235 -0.28082943
-0.24252316 0.121887654 -0.09509159 -0.095322415 -0.2845501 -0.57889986 0.32299945 0.15598013
0.10583772 0.60724753 -0.56488615 -0.49095878 -0.19381548 0.57807225 -0.39558065 0.3131425
0.09516164 0.16767316 -0.6815514 0.119182624 0.67636514 0.334641 -0.27811384 0.48699868
-0.7251849 -0.22752419 0.07980752 -0.4169846 -0.3554328 -0.046131223 0.26688904 0.6222905
-0.42359096 -0.046541203 -0.40962908 0.42364743 0.04278155 0.14270194 -0.4847917 -0.45341414
0.6138705 0.26824015 -0.2972508 -0.29342845 0.052553944 -0.033178672 -0.19937049 0.74316096
0.18550022 -0.18578726 -0.34307116 0.00095738424 -0.63055813 0.015822655 -0.13071844 0.07648667
0.07622202 -0.054767925 0.14258485 -0.0071218917 0.058835503 -0.10751939 0.023599822 -0.07530911
-0.10772474 -0.00027792368 -0.048876364 0.049443755 0.05109435 0.037701003 0.010786918 0.17969263
0.0041667186 0.22316182 -0.030827433 -0.017820802 -0.03215736 -0.100332685 -0.15875444 0.07516544
0.015175764 -0.092106186 -0.20700534 -0.041038007 -0.12644278 -0.02240938 -0.09623938 0.2625317
0.021626886 -0.061001502 0.12477399 0.08753787 0.118829526 -0.11018928 -0.17412311 -0.043881454
0.036662027 -0.050774153 -0.03608217 0.14902115 -0.12393533 0.15945289 0.03549884 -0.08970455
0.06476054 0.048084617 0.1326658 0.14916825 -0.07590307 0.1276988 0.080764905 0.16619086
